model_locomotion200.pth.tar (torch_old, 108687 bytes, 4 tensors)

conv1.weight f4 [64, 3, 65]
0	0x3e01d0b5	0.12677272
1	0x3daf6b55	0.08565394
2	0x3d2d7b44	0.042353883
3	0x3dbc48a8	0.091935456
4	0x3d9f4f97	0.077788524
5	0xbd1ca3be	-0.038242094
6	0xbd63b169	-0.055589113
7	0x3c99beef	0.018767802
8	0x3c310abe	0.010805784
9	0xbc57369a	-0.013135577
10	0xbca97e8e	-0.020690229
11	0xbdcea6b9	-0.100903936
12	0xbd772aed	-0.06034367
13	0xbd80c6a3	-0.06287887
14	0xbdeca361	-0.115545996
15	0xbdce2fca	-0.10067709
16	0xbe17c252	-0.14820221
17	0xbdcbb2db	-0.09946223
18	0xbd9476c1	-0.07249213
19	0xbdf968ef	-0.121782176
20	0xbd33bd54	-0.04388173
21	0xbcf53f4b	-0.029937407
22	0x3cf2820b	0.029603025
23	0xbcac77a2	-0.02105314
24	0x3d9f5d47	0.07781463
25	0x3ce70041	0.028198363
26	0x3d852de7	0.06502896
27	0x3db614ae	0.08890663
28	0x3de74f22	0.1129439
29	0x3d2ab8a1	0.041679982
30	0x3dbeb9bf	0.09312772
31	0xbb17b534	-0.0023148777
32	0xbcfa4753	-0.030551588
33	0xbb27ccc5	-0.002560423
34	0x3c8ec204	0.017426498
35	0x3cbd7c89	0.023130672
36	0x3d10bc9b	0.03533612
37	0x3bba6a8e	0.005688972
38	0x3d53b0f1	0.051682416
39	0x3b23db50	0.0025002547
40	0x3cb9f613	0.022700345
41	0x3c59da06	0.01329661
42	0xbd1e1249	-0.038591657
43	0x3bfdac42	0.007741482
44	0x3d1bb4f7	0.03801438
45	0x3d44cd40	0.048047304
46	0xbd454b38	-0.048167437
47	0x3cdbe4e6	0.026842546
48	0x3d8dd1e8	0.06924802
49	0x3af95864	0.0019023535
50	0x3d669a6b	0.05629961
51	0xbd8e9eea	-0.06963904
52	0xbc326ce8	-0.010890223
53	0xbdab5cbc	-0.08367297
54	0x3c49b01c	0.012310054
55	0xbdad0f30	-0.084501624
56	0xbd0ad630	-0.03389567
57	0xbd64319c	-0.055711374
58	0x3c272544	0.010201756
59	0x3d4a788c	0.04943137
60	0xbd4c9b01	-0.04995251
61	0xbbb075b6	-0.005385126
62	0x3ca0ceeb	0.019629916
63	0x3bcb73f0	0.006208889
64	0x3cc68cb3	0.024237012
65	0x3ce5c2ef	0.028047053
66	0x3d01c15c	0.031678542
67	0x3c967dc2	0.018370513
68	0x3d883871	0.0665139
69	0x3d726f43	0.05918814
70	0x3d14bb38	0.03631136
71	0x3d52177f	0.05129194
72	0x3d1055dd	0.035238136
73	0xbc355bd0	-0.011069253
74	0xbd83dacc	-0.064382166
75	0xbd5e9c0a	-0.05434803
76	0x3d4ef9c1	0.050531153
77	0x3c6d4570	0.014481887
78	0xbd866e8d	-0.06564055
79	0xbcc22c3c	-0.023702733
80	0x3c4977bf	0.012296616
81	0xbd91595c	-0.07097122
82	0xbdbbbdc3	-0.091670536
83	0x3c564cf3	0.01307987
84	0xbd44436f	-0.047915872
85	0xbd594da9	-0.053052578
86	0xbd9da833	-0.07698097
87	0xbd3c0d59	-0.045911167
88	0x3c6eb977	0.014570585
89	0x3d429354	0.047503784
90	0x3d11c3b3	0.035587024
91	0xbd6c60f6	-0.057709657
92	0xbd6a355e	-0.0571798
93	0x3b1f8887	0.0024342851
94	0x3cc34d0d	0.023840452
95	0xbd5366d6	-0.051611744
96	0x3c6294d0	0.013829425
97	0xbd35ea90	-0.04441315
98	0x3ccd7e11	0.025084527
99	0x3d98622f	0.07440602
100	0x3ccb82eb	0.0248427
101	0xbd379434	-0.044819072
102	0xbca14a2d	-0.01968869
103	0xbbfc6a97	-0.007703136
104	0x3d85473e	0.06507729
105	0x3d3a6566	0.045506857
106	0x3c2241c1	0.009903372
107	0xbccd582d	-0.02506646
108	0x3b47f9b8	0.0030513834
109	0xbc702a65	-0.014658545
110	0xbd567db1	-0.052365962
111	0x3d72762d	0.059194732
112	0x3d8f5c2d	0.07000003
113	0xbd1766b6	-0.036963187
114	0x3d957e6e	0.07299505
115	0x3d034441	0.032047514
116	0x3d8182d5	0.06323782
117	0x3ca47a8a	0.020077962
118	0x3d0b959c	0.034078225
119	0x3ce237cf	0.027614502
120	0xbd594117	-0.05304059
121	0xbd7d296e	-0.06180709
122	0xbb5a5eed	-0.003332074
123	0xbd3fd8ec	-0.046837732
124	0xbc901ca5	-0.017591784
125	0x3ce695b1	0.02814755
126	0x3d4147ba	0.047187544
127	0x3baeff36	0.005340482
128	0x3d00fe74	0.031492665
129	0xbdc580d0	-0.0964371
130	0xbd84d9a2	-0.06486823
131	0xbc6abaa1	-0.014326722
132	0xbd7a518c	-0.061112925
133	0xbdafab6f	-0.0857762
134	0x3d11351d	0.035451043
135	0x3d326836	0.043556415
136	0x3d181bd8	0.03713593
137	0xbd8b5154	-0.068026215
138	0x3c828849	0.015934126
139	0xbaf8c638	-0.0018979972
140	0x3b994f80	0.0046786666
141	0x3c46f335	0.012142946
142	0xba355203	-0.0006916823
143	0xbd591013	-0.052993845
144	0xbd89e6ea	-0.067334965
145	0xbd65305f	-0.055954333
146	0xbd28c388	-0.041202098
147	0xbd7ca693	-0.061682295
148	0xbd179cfc	-0.037014946
149	0x3ce784e7	0.028261615
150	0x3d29052b	0.041264694
151	0x3c9bbd1a	0.01901107
152	0x3c323df0	0.010879025
153	0x3cfa1052	0.03052536
154	0x3d7bf641	0.061514143
155	0x3da68e52	0.08132614
156	0xbc900ad4	-0.017583288
157	0x3d9033b7	0.07041114
158	0x3d6d1ca1	0.05788863
159	0x3d450ef3	0.04810996
160	0x3da160ea	0.07879813
161	0xba8756d9	-0.0010325565
162	0x3d46c829	0.04853073
163	0x3d1361ec	0.035982057
164	0x3da9ef9a	0.082976535
165	0xbd2717f6	-0.040794335
166	0x3d13df9b	0.03610192
167	0xbcef1bbb	-0.029188028
168	0xbcc99654	-0.024607815
169	0xbb9b5be6	-0.0047411798
170	0x3c911bcd	0.017713452
171	0xbc9a03dd	-0.01880067
172	0x3d6fda40	0.05855775
173	0x3d2abaf0	0.041682184
174	0xbd8b9e4e	-0.068173036
175	0x3d3c7e34	0.046018794
176	0xbcd6332d	-0.02614745
177	0xbd603cd8	-0.054745525
178	0xbd9ba1a3	-0.07599189
179	0xbd97a231	-0.074039824
180	0xbd3ba4ab	-0.045811336
181	0x3d022d14	0.03178127
182	0xbd0b1c64	-0.033962622
183	0x3d467269	0.048448954
184	0xbd8675b4	-0.06565419
185	0xbb072b0b	-0.002062502
186	0x3d8dbbd1	0.06920589
187	0xbc422504	-0.0118496455
188	0xbba8e773	-0.005154544
189	0x3bf37741	0.0074299877
190	0x3d181c3d	0.037136305
191	0x3d29ad8d	0.041425277
192	0xbcd2939f	-0.025705157
193	0xbcd5766f	-0.02605745
194	0xbd828194	-0.06372371
195	0xbe37b776	-0.17941079
196	0xbd581ea4	-0.052763596
197	0xbe109494	-0.14119178
198	0xbcdfd854	-0.027324833
199	0xbde9ab6b	-0.114096485
200	0xbca0d655	-0.019633451
201	0xbca8c773	-0.020602917
202	0x3c68fdba	0.014220649
203	0xbc08dbe5	-0.008353208
204	0xbcb1eb9c	-0.021718793
205	0xbd07a65a	-0.03311763
206	0x3ceb2720	0.02870518
207	0xbc99a755	-0.018756548
208	0xbd18065c	-0.03711544
209	0xbb20d500	-0.002454102
210	0xbd60168c	-0.054709002
211	0xbc7decec	-0.015498381
212	0x3bce436e	0.0062946593
213	0x3cb9f634	0.022700407
214	0x3d3d84e8	0.046269327
215	0x3d287038	0.041122645
216	0x3cea2f24	0.028586932
217	0xbd82f4e3	-0.06394365
218	0xbd2cff60	-0.042235732
219	0xbcac44fb	-0.021028986
220	0xbbe0c2f8	-0.0068591796
221	0xbd331ef1	-0.04373068
222	0xbc200fcf	-0.009769394
223	0x3d2618f5	0.040551145
224	0xbd5f70c2	-0.054550894
225	0x3d3f9289	0.046770606
226	0x3d12fa56	0.03588327
227	0x3c81c8a0	0.015842736
228	0x3d882980	0.066485405
229	0x3cd9bdf8	0.026579842
230	0xbbda940e	-0.0066704815
231	0xbd308fc4	-0.043105856
232	0xbd36407e	-0.0444951
233	0xbcd83ab7	-0.026395185
234	0xbb992147	-0.0046731564
235	0x3cf4b186	0.029869806
236	0x3ceb14b8	0.028696403
237	0xba1589a0	-0.00057044066
238	0x3a98e489	0.0011664788
239	0x3da0eeb3	0.07858028
240	0x3b810aaf	0.003938041
241	0x3da9c04d	0.082886316
242	0x3de78b70	0.113058925
243	0x3d775194	0.060380533
244	0xbcb9b2ac	-0.022668205
245	0x3dc1cc22	0.09462763
246	0x3d52aa74	0.051432088
247	0x3da84511	0.08216298
248	0x3d9c2afa	0.07625385
249	0x3d92e061	0.07171703
250	0xbc4a2666	-0.012338256
251	0x3d01be1c	0.031675443
252	0xbd08e887	-0.03342488
253	0xbcc1f086	-0.02367426
254	0xbe0bbe2d	-0.13646765
255	0xbe14240f	-0.1446688

conv1.bias f4 [64]
0	0xbe62f4e8	-0.22163737
1	0xbe7d1308	-0.24714291
2	0x3e6ed223	0.23322348
3	0x3d6f76eb	0.05846302
4	0xbe860c62	-0.26181322
5	0x3e2069fb	0.15665428
6	0x3e858609	0.26078823
7	0x3e815922	0.25263315
8	0xbe98e7da	-0.2986439
9	0xbe4b6237	-0.19861685
10	0xbe6de289	-0.23230948
11	0xbeab7083	-0.33484277
12	0xbe90ee3a	-0.28306752
13	0x39ab0ca4	0.0003262508
14	0x3e806089	0.2507365
15	0x3de24674	0.11048594
16	0x3d2355b3	0.03987665
17	0x3a8e6eca	0.0010866758
18	0xbea373d4	-0.31924307
19	0xbe150b5d	-0.14555116
20	0xbe97c380	-0.29641342
21	0xbe36d805	-0.17855842
22	0x3e835df7	0.25657627
23	0x3da0206d	0.07818685
24	0xbea02f8e	-0.3128628
25	0xbeb73a1b	-0.35786518
26	0xb9d6309d	-0.0004085348
27	0xbe26d68e	-0.16292784
28	0x39cdee81	0.00039278346
29	0xbe80d7bb	-0.2516459
30	0x3dce3602	0.10068895
31	0x3daf16d2	0.085492745
32	0xbeb0eb8b	-0.34554705
33	0xbda9d195	-0.08291928
34	0xbe953bdc	-0.29147232
35	0x3d94c74b	0.072645746
36	0x3e09ebac	0.13468808
37	0x3ea069ab	0.31330618
38	0xbe4b6323	-0.19862036
39	0x3e1b37f9	0.1515807
40	0x3e71e440	0.23622227
41	0x3e1eb3e2	0.15498307
42	0xbe9af552	-0.3026529
43	0x3eb8a7df	0.36065575
44	0xbe5f15e0	-0.21785688
45	0xbdc64ab7	-0.096822195
46	0xbe955fc1	-0.29174617
47	0xb9a17e6a	-0.000308025
48	0xbe273c53	-0.16331606
49	0xbeaa62d9	-0.3327854
50	0xbe768ca0	-0.24077082
51	0xbea4af27	-0.3216488
52	0xbe680b40	-0.22660542
53	0x3e2966f7	0.16543184
54	0x3e6deffe	0.23236081
55	0xba0589b3	-0.0005094066
56	0x3e8090c7	0.25110456
57	0x3e446400	0.19178772
58	0x3e126e5a	0.14299908
59	0x3e2c1ae9	0.1680714
60	0x3e4f581e	0.20248458
61	0xbaa1e3ca	-0.0012351212
62	0xbe136ce4	-0.14397007
63	0xbe89c074	-0.26904643

conv2.weight f4 [5, 64, 45]
0	0x3e02c2cb	0.1276962
1	0x3d599918	0.053124517
2	0x3ce48eaa	0.027900059
3	0x3c0cd21b	0.008595015
4	0x3cc3e573	0.02391312
5	0x3d42b7b0	0.04753846
6	0x3d2a3028	0.04154983
7	0x3d55208d	0.052032996
8	0x3d8be2fd	0.06830404
9	0x3d6eaa25	0.05826773
10	0x3d29e68c	0.041479632
11	0x3d5db2a0	0.05412543
12	0x3d26d7a0	0.04073298
13	0x3cbb8f8a	0.022895593
14	0x3cbac709	0.022799985
15	0x3cb64619	0.022250222
16	0x3d0f7504	0.035023704
17	0x3d1caf75	0.038253266
18	0x3ccb5132	0.02481899
19	0x3d3dae7e	0.046308987
20	0x3cf92039	0.030410873
21	0x3d1deafa	0.03855417
22	0x3d3827ff	0.04496002
23	0x3d4e18c4	0.050316587
24	0x3d837e72	0.06420602
25	0x3d8a499b	0.067523204
26	0x3da222fe	0.079168305
27	0x3dcf158e	0.10111533
28	0x3de124d2	0.10993351
29	0x3dff7af4	0.12474623
30	0x3de04bfd	0.109519936
31	0x3dd8076c	0.105482906
32	0x3da44b3b	0.080221616
33	0x3ccb0eb4	0.024787284
34	0x3c0ce0de	0.008598534
35	0xbd0ce057	-0.034393635
36	0xbd4e3793	-0.05034597
37	0xbd6a0446	-0.05713298
38	0xbd817be0	-0.063224554
39	0xbd60aa69	-0.054850016
40	0xbc3ce0ba	-0.011528188
41	0x3c9e9436	0.019357782
42	0x3d7086bf	0.058722254
43	0x3e03e48e	0.12880155
44	0x3e4a2082	0.19738963
45	0x3ddabefc	0.10680959
46	0x3da4de71	0.0805024
47	0x3d7bcb5c	0.061473235
48	0x3d8462eb	0.064641796
49	0x3d57c806	0.05268099
50	0x3cfecdf5	0.031104067
51	0x3d396b8f	0.04526859
52	0x3d4261b3	0.047456454
53	0x3d07ce8a	0.033155955
54	0x3cf14f66	0.029456805
55	0x3d14b4c1	0.036305193
56	0x3d166005	0.036712665
57	0x3d31ede5	0.043439765
58	0x3cb7211f	0.02235466
59	0x3d06d0d0	0.032913983
60	0x3d262479	0.040562127
61	0x3cedb3c9	0.029016392
62	0x3cf09c67	0.029371453
63	0x3cb1333a	0.021630872
64	0x3d0e7a33	0.034784507
65	0x3ce1edd0	0.027579218
66	0x3ce244f4	0.02762077
67	0x3c95bf55	0.01827971
68	0x3d18f637	0.037344184
69	0x3d3d224f	0.046175297
70	0x3d1dbbfb	0.03850935
71	0x3d021f8a	0.03176836
72	0x3cdd0ba6	0.026983093
73	0x3cb0d422	0.021585528
74	0x3ca90ab2	0.020634983
75	0x3c357191	0.01107444
76	0x3c3d8798	0.011567973
77	0x3b65e864	0.0035081143
78	0xbc1d64b6	-0.009606531
79	0xbc33d0ee	-0.010975106
80	0xbc616834	-0.013757754
81	0xbcdd020e	-0.026978519
82	0xbd04021b	-0.03222857
83	0xbd08642e	-0.033298664
84	0xbca93eb4	-0.020659782
85	0xbc18b011	-0.009319321
86	0x3b8cfa01	0.0043022637
87	0x3cf74333	0.03018341
88	0x3d3ed3be	0.04658865
89	0x3d9e4116	0.07727258
90	0xbcd730d2	-0.026268397
91	0xbcc45084	-0.023964174
92	0xbc52eefd	-0.012874362
93	0x3acb8d6a	0.0015529816
94	0xbbb9fa02	-0.005675555
95	0x3c09cfb0	0.008411333
96	0x3c0841d9	0.008316481
97	0xbbe0175d	-0.0068387226
98	0x3b1e34bf	0.0024140326
99	0x3c48f570	0.012265548
100	0x3c5e3822	0.013563188
101	0x3bb70bf6	0.0055861427
102	0xba564bb9	-0.00081747357
103	0x3c86b545	0.016443858
104	0x3c83c9a5	0.016087363
105	0x3b1c0f37	0.002381278
106	0x3c9edff7	0.019393904
107	0x3c21e059	0.009880149
108	0x3ccf658a	0.025316972
109	0x3cffc14e	0.031220105
110	0x3cb7e09a	0.022445966
111	0x3d0210fb	0.031754475
112	0x3d2a0b60	0.041514754
113	0x3cbb64b5	0.02287517
114	0x3cfaa729	0.030597286
115	0x3ba98f70	0.00517457
116	0x3c86836c	0.016420089
117	0x3b8cf90f	0.004302151
118	0xbc3215a3	-0.010869416
119	0xbce9fd47	-0.028563155
120	0xbd2efd19	-0.04272184
121	0xbd0c8842	-0.034309633
122	0xbcff7b46	-0.031186711
123	0xbcc4e411	-0.024034532
124	0xbcc54144	-0.024078973
125	0x3a075851	0.00051630015
126	0x3cd5f05e	0.026115593
127	0x3d28b2b0	0.041186035
128	0x3d243279	0.040087197
129	0x3d864bcc	0.06557426
130	0x3d927cc0	0.071527004
131	0x3d93dd69	0.07219965
132	0x3d6ea5c0	0.05826354
133	0x3d6e70ec	0.05821316
134	0x3d702fce	0.05863934
135	0x3c89b9f2	0.016812298
136	0x3c8167a1	0.015796484
137	0x3bd92512	0.0066267336
138	0x3bef5a0e	0.0073044365
139	0x3b384e59	0.002812287
140	0x3bd3ea78	0.00646716
141	0xba9077f4	-0.0011022077
142	0xbaab6a63	-0.001307797
143	0xbbc22467	-0.0059247497
144	0x3b092c08	0.0020930786
145	0xbb675307	-0.003529729
146	0xbc06cc88	-0.008227475
147	0x3a8cd06e	0.0010743269
148	0xbc015a82	-0.007895114
149	0xbb542e9d	-0.0032376416
150	0x3a767d02	0.0009402783
151	0xbbd2e2f4	-0.0064357463
152	0xbba7daad	-0.0051225037
153	0x3b424b18	0.002964681
154	0x3b5baba3	0.0033519052
155	0x3c3c959b	0.011510278
156	0x3a92fb97	0.0011213896
157	0x3c701b83	0.014654997
158	0x3c58cecb	0.013232897
159	0x3b92bcd4	0.0044780765
160	0x3ae063e6	0.0017119616
161	0x3c80d53f	0.015726684
162	0x3bf9c4b2	0.007622325
163	0x3bf1e7f0	0.0073823854
164	0x3a211dc7	0.00061461
165	0x3c6d6b03	0.014490846
166	0x3bd0be95	0.0063703754
167	0x3bd0b755	0.006369511
168	0x3c578dc9	0.013156363
169	0x3c16e89e	0.009210734
170	0x3be073b5	0.006849731
171	0x3a3035e9	0.00067219004
172	0x3c0eb3d8	0.00870987
173	0x3b8e8d8c	0.00435037
174	0xbb9960cb	-0.004680728
175	0xba450869	-0.0007516207
176	0x3b46b5dc	0.00303208
177	0x3a94f811	0.0011365433
178	0xbb5d2d1b	-0.0033748809
179	0xbbf120cf	-0.0073586474
180	0x3d26affe	0.040695183
181	0x3cdf762b	0.027278027
182	0x3d236bce	0.039897732
183	0x3ceb0936	0.028690916
184	0x3ceaa2e3	0.028642124
185	0x3d06b4f9	0.032887433
186	0x3d314d5c	0.043286666
187	0x3d3a763e	0.04552292
188	0x3d496321	0.049166802
189	0x3d2a9a30	0.04165095
190	0x3d004f5f	0.031325694
191	0x3d09b38a	0.033618487
192	0x3c72a0eb	0.014808874
193	0x3c884c25	0.016637871
194	0xbb17a57f	-0.0023139415
195	0xbbf60431	-0.007507824
196	0xbc87c65a	-0.016574074
197	0xbc987370	-0.018609732
198	0xbcaa3ce3	-0.020780986
199	0xbce91a30	-0.02845487
200	0xbcaea0ad	-0.02131685
201	0xbc3e4e51	-0.011615352
202	0x3b60c438	0.0034296643
203	0x3c17b0c6	0.009258455
204	0x3c22e6c4	0.009942714
205	0x3d070517	0.03296384
206	0x3d28a667	0.04117432
207	0x3d4830cd	0.048874665
208	0x3d72c327	0.059268143
209	0x3d729fd9	0.059234474
210	0x3d793647	0.06084278
211	0x3d34d145	0.044144887
212	0x3d558d9d	0.052137006
213	0x3d079ef6	0.03311058
214	0x3d2c5fd5	0.04208358
215	0x3cea01cd	0.028565312
216	0x3ca107c7	0.019657029
217	0x3cca9247	0.024727954
218	0x3cdbaf9f	0.026817141
219	0x3c199bbf	0.009375512
220	0x3cbfd02e	0.023414697
221	0x3ce3c802	0.027805332
222	0x3d06d8d9	0.032921646
223	0x3d5ad5ff	0.05342674
224	0x3d8e1782	0.069380775
225	0x3e0b405f	0.13598774
226	0x3df59544	0.11991361
227	0x3dc0408c	0.09387311
228	0x3db8d298	0.090245426
229	0x3dab0948	0.0835138
230	0x3d83a5e8	0.064281285
231	0x3d979544	0.07401517
232	0x3d98f779	0.07469077
233	0x3d99cf11	0.07510198
234	0x3d71475a	0.058905937
235	0x3da21c30	0.079155326
236	0x3d84dc9d	0.06487391
237	0x3d9c621a	0.07635899
238	0x3d9c5309	0.07633025
239	0x3d8133bd	0.063086964
240	0x3da2b90d	0.07945452
241	0x3da5e6d7	0.0810067
242	0x3d8b5a86	0.06804375
243	0x3d7de251	0.06198341
244	0x3d993e3e	0.07482575
245	0x3d8bcd32	0.06826247
246	0x3d8c5bc2	0.06853439
247	0x3d71080e	0.058845572
248	0x3d698190	0.057008326
249	0x3d2f2757	0.042762127
250	0x3cd06fe0	0.025443971
251	0x3ceac9de	0.02866071
252	0x3d0a2a59	0.033731792
253	0x3d1ddb61	0.038539294
254	0x3d0fdd4f	0.035123166
255	0x3d12730d	0.035754252

conv2.bias f4 [5]
0	0xbe2f918e	-0.17145368
1	0x3e062520	0.131001
2	0x3df37025	0.11886624
3	0x3e24f394	0.16108543
4	0x3e0f8fef	0.1401975
